…
Namespace(Method='Adaptive_Quantization', NUM_UNITS=4, Number_active=2, UnitActivityMask=None, algo='ppo', batch_size=256, clip_eps=0.2, discount=0.99, entropy_coef=0.01, env='MiniGrid-DLEnv-random-v0', epochs=4, frames=1500000, frames_per_proc=128, freeze_sharedParameters=False, gae_lambda=0.95, k=2, log_interval=1, lr=0.0001, max_grad_norm=0.5, mem=True, model='MiniGrid-DLEnv-random-v0_Adaptive_Quantization_5_', model_dir_save=None, num_schemas=4, optim_alpha=0.99, optim_eps=1e-08, procs=16, recurrence=32, rim_type='Original', rnn_cell='LSTM', save_interval=10, schema_weighting=None, seed=5, text=False, use_rim=False, value_loss_coef=0.5)

Device: cuda

Environments loaded

Training status loaded

Observations preprocessor loaded
number of model parameters:54736

Model loaded

ACModel(
  (image_conv): Sequential(
    (0): Conv2d(3, 16, kernel_size=(2, 2), stride=(1, 1))
    (1): ReLU()
    (2): MaxPool2d(kernel_size=(2, 2), stride=(2, 2), padding=0, dilation=1, ceil_mode=False)
    (3): Conv2d(16, 32, kernel_size=(2, 2), stride=(1, 1))
    (4): ReLU()
    (5): Conv2d(32, 64, kernel_size=(2, 2), stride=(1, 1))
    (6): ReLU()
  )
  (memory_rnn): LSTMCell(64, 64)
  (actor): Sequential(
    (0): Linear(in_features=64, out_features=64, bias=True)
    (1): Tanh()
    (2): Linear(in_features=64, out_features=7, bias=True)
  )
  (critic): Sequential(
    (0): Linear(in_features=64, out_features=64, bias=True)
    (1): Tanh()
    (2): Linear(in_features=64, out_features=1, bias=True)
  )
  (QuantizerFunction): QuantizerFunction(
    (Quantization_projector): Linear(in_features=64, out_features=8, bias=True)
    (Quantization_projector_back): Linear(in_features=8, out_features=64, bias=True)
    (QuantizeFunctions): ModuleList(
      (0): Quantize(
        (out_proj): Linear(in_features=8, out_features=8, bias=True)
        (embed): Embedding(32, 8)
      )
      (1): Quantize(
        (out_proj): Linear(in_features=8, out_features=8, bias=True)
        (embed): Embedding(32, 4)
      )
      (2): Quantize(
        (out_proj): Linear(in_features=8, out_features=8, bias=True)
        (embed): Embedding(32, 2)
      )
    )
    (quantization_attention): MultiheadAttention(
      (out_proj): _LinearWithBias(in_features=8, out_features=8, bias=True)
    )
  )
)

Optimizer loaded

U 1 | F 002048 | FPS 0260 | D 7 | rR:μσmM 0.17 0.36 0.00 0.96 | F:μσmM 11.1 17.8 0.0 55.0 | H 1.944 | V 0.048 | pL -0.012 | vL 0.009 | ∇ 0.060
U 2 | F 004096 | FPS 0270 | D 15 | rR:μσmM 0.29 0.39 0.00 0.96 | F:μσmM 55.9 61.0 0.0 180.0 | H 1.944 | V 0.056 | pL -0.005 | vL 0.004 | ∇ 0.044
…
