…
Namespace(Method='Adaptive_Quantization', NUM_UNITS=4, Number_active=2, UnitActivityMask=None, algo='ppo', batch_size=256, clip_eps=0.2, discount=0.99, entropy_coef=0.01, env='MiniGrid-MultiRoom-N2-S4-v0', epochs=4, frames=1500000, frames_per_proc=128, freeze_sharedParameters=False, gae_lambda=0.95, k=2, log_interval=1, lr=0.0001, max_grad_norm=0.5, mem=True, model='MiniGrid-MultiRoom-N2-S4-v0_Adaptive_Quantization_1_', model_dir_save=None, num_schemas=4, optim_alpha=0.99, optim_eps=1e-08, procs=16, recurrence=32, rim_type='Original', rnn_cell='LSTM', save_interval=10, schema_weighting=None, seed=1, text=False, use_rim=False, value_loss_coef=0.5)

Device: cuda

Environments loaded

Training status loaded

Observations preprocessor loaded
number of model parameters:54736

Model loaded

ACModel(
  (image_conv): Sequential(
    (0): Conv2d(3, 16, kernel_size=(2, 2), stride=(1, 1))
    (1): ReLU()
    (2): MaxPool2d(kernel_size=(2, 2), stride=(2, 2), padding=0, dilation=1, ceil_mode=False)
    (3): Conv2d(16, 32, kernel_size=(2, 2), stride=(1, 1))
    (4): ReLU()
    (5): Conv2d(32, 64, kernel_size=(2, 2), stride=(1, 1))
    (6): ReLU()
  )
  (memory_rnn): LSTMCell(64, 64)
  (actor): Sequential(
    (0): Linear(in_features=64, out_features=64, bias=True)
    (1): Tanh()
    (2): Linear(in_features=64, out_features=7, bias=True)
  )
  (critic): Sequential(
    (0): Linear(in_features=64, out_features=64, bias=True)
    (1): Tanh()
    (2): Linear(in_features=64, out_features=1, bias=True)
  )
  (QuantizerFunction): QuantizerFunction(
    (Quantization_projector): Linear(in_features=64, out_features=8, bias=True)
    (Quantization_projector_back): Linear(in_features=8, out_features=64, bias=True)
    (QuantizeFunctions): ModuleList(
      (0): Quantize(
        (out_proj): Linear(in_features=8, out_features=8, bias=True)
        (embed): Embedding(32, 8)
      )
      (1): Quantize(
        (out_proj): Linear(in_features=8, out_features=8, bias=True)
        (embed): Embedding(32, 4)
      )
      (2): Quantize(
        (out_proj): Linear(in_features=8, out_features=8, bias=True)
        (embed): Embedding(32, 2)
      )
    )
    (quantization_attention): MultiheadAttention(
      (out_proj): _LinearWithBias(in_features=8, out_features=8, bias=True)
    )
  )
)

Optimizer loaded

U 1 | F 002048 | FPS 0215 | D 9 | rR:μσmM 0.03 0.14 0.00 0.80 | F:μσmM 38.9 5.2 9.0 40.0 | H 1.942 | V -0.048 | pL -0.045 | vL 0.002 | ∇ 0.048
U 2 | F 004096 | FPS 0220 | D 18 | rR:μσmM 0.01 0.06 0.00 0.39 | F:μσmM 39.7 1.8 27.0 40.0 | H 1.941 | V -0.024 | pL -0.025 | vL 0.001 | ∇ 0.033
…
